2025-06-19_taller_cnn_basico_deep_learning_keras_pytorch/modelo/cnn_mnist.pt (torch, 831273 bytes, 8 tensors)

conv1.weight f4 [16, 1, 3, 3]
0	0xbd825946	-0.06364684
1	0x3e7ae372	0.24500826
2	0xbef1b015	-0.47204652
3	0xbebd4a0a	-0.3697055
4	0xbed710e3	-0.4200507
5	0xbecc218b	-0.3986934
6	0xbe445f6e	-0.19177029
7	0xbe8fb510	-0.28067827
8	0xbeeb0404	-0.459015
9	0x3ebe874b	0.37212595
10	0x3de3d6b4	0.11124936
11	0x3ee92960	0.4553938
12	0x3cd7638c	0.026292585
13	0x3e5708d5	0.20999463
14	0xbe735c31	-0.23765637
15	0xbe8008ab	-0.25006613
16	0xbec43dec	-0.38328493
17	0xbeb18226	-0.34669608
18	0xbebe92f2	-0.37221485
19	0xbec2fbd1	-0.38082746
20	0x3e4e705c	0.20160049
21	0x3ecc84d5	0.39945093
22	0x3eba0266	0.36329955
23	0x3e2a2825	0.16616876
24	0x3e20f5e0	0.15718794
25	0x3cf1cd47	0.02951683
26	0xbd9b2ab6	-0.07576506
27	0x3eeca0b8	0.4621637
28	0x3e058745	0.13039882
29	0xbe8ee8cc	-0.27911985
30	0xbec250d8	-0.37952304
31	0xbf135e32	-0.57565606
32	0xbe3cb71d	-0.18429227
33	0xbde3de29	-0.11126358
34	0x3ee5bdb1	0.44871286
35	0x3e3499ca	0.17636791
36	0xbef33bc9	-0.4750655
37	0xbd579ff7	-0.05264279
38	0x3f0a0d28	0.53926325
39	0xbeb6b6b3	-0.35686263
40	0xbea6bca2	-0.3256579
41	0x3e5d7d83	0.2162991
42	0xbed0cc3c	-0.40780818
43	0xbf066ac5	-0.5250667
44	0xbeb0a9e1	-0.34504607
45	0xbdd63ff3	-0.10461416
46	0x3ea5a0b9	0.32349184
47	0x3ed97923	0.42475232
48	0x3e587377	0.21137796
49	0x3e694a55	0.22782262
50	0xbe1a0bae	-0.15043518
51	0xbe4ab414	-0.19795257
52	0xbf011b5e	-0.50432384
53	0xbeb2d847	-0.34930632
54	0xbd1cc4ee	-0.038273744
55	0x3eb192c6	0.34682292
56	0xbe5acd8b	-0.21367471
57	0x3d489447	0.048969533
58	0x3e389874	0.18026906
59	0xbedd2e37	-0.43199322
60	0x3ea63fdb	0.32470593
61	0x3dcbe0b8	0.09954971
62	0xbe4f4c42	-0.20243934
63	0xbe53e3a5	-0.20692308
64	0xbe873bb8	-0.2641275
65	0xbdb19ebd	-0.08672855
66	0xbe783f0a	-0.24242797
67	0xbd90c9d4	-0.07069746
68	0xbed66d4b	-0.4188026
69	0x3eb4a3da	0.3528126
70	0xbcf17f57	-0.029479666
71	0xbd88a431	-0.06671942
72	0x3de5a03a	0.112122014
73	0x3defb228	0.117039025
74	0xbea93073	-0.33044776
75	0x3eaa0efe	0.33214563
76	0x3cff989b	0.031200698
77	0xbe9cf2f6	-0.30654114
78	0x3e4dea2e	0.20108864
79	0x3e5a8385	0.21339233
80	0xbd571a33	-0.05251522
81	0xbd6088de	-0.054818027
82	0xbe0d2d43	-0.13786797
83	0xbed65a03	-0.41865548
84	0x3e84b595	0.25919786
85	0xbe9b2793	-0.3030363
86	0xbef2e840	-0.47442818
87	0x3f159a7b	0.58438843
88	0x3eafb182	0.34315115
89	0x3e03a8ba	0.12857333
90	0xbe645d95	-0.22301324
91	0xbed0f996	-0.4081542
92	0xbe23a734	-0.15981752
93	0xbecbfceb	-0.398414
94	0xbe431917	-0.1905254
95	0x3e8d09ae	0.27546448
96	0xbecf0750	-0.40435266
97	0x3edbd674	0.42937052
98	0x3dd1f920	0.10252595
99	0xbf0c49dc	-0.548002
100	0xbce0c7be	-0.027438994
101	0x3ee66779	0.45000818
102	0xbed7fa47	-0.42183134
103	0xbe1a2cb4	-0.15056115
104	0x3ec7b7fc	0.39007556
105	0x3e2ef8a5	0.17087038
106	0xba27ccb2	-0.00064010464
107	0x3e9612e9	0.29311302
108	0xbea9e787	-0.33184454
109	0xbf06e433	-0.52691954
110	0xbf05c2a6	-0.52250135
111	0x3ef6e950	0.48224878
112	0x3e0e787e	0.13913152
113	0xbbc6b684	-0.006064238
114	0xbce322a0	-0.027726471
115	0x3e988d4e	0.29795307
116	0x3ecb810d	0.39746895
117	0x3e4a9659	0.19783916
118	0x3eb14526	0.3462307
119	0xbdcac0bd	-0.09900043
120	0xbef4b9d7	-0.47798035
121	0x3ef7d492	0.48404366
122	0x3e3f49b7	0.18680464
123	0xbf404961	-0.7511197
124	0x3ea211db	0.31654248
125	0xbdff7371	-0.124731906
126	0xbd3971a4	-0.04527439
127	0x3d42b8a7	0.04753938
128	0x3e534c4c	0.20634574
129	0x3eb4b281	0.35292438
130	0x3e0894f9	0.13338079
131	0xbdc61179	-0.096713014
132	0x3ebb794b	0.36615977
133	0x3c0cda03	0.0085969
134	0xbf090e58	-0.5353751
135	0xbdd123f1	-0.102119334
136	0x3e7c3f73	0.24633579
137	0x3e1688a0	0.14700556
138	0x3e6a80fc	0.22900766
139	0xbeb28019	-0.34863356
140	0x3ec41fea	0.38305598
141	0x3d1d247a	0.038364865
142	0xbee6dc3c	-0.450899
143	0xbe46e1b3	-0.19422035

conv1.bias f4 [16]
0	0x3ea8c863	0.32965383
1	0x3dab0162	0.08349873
2	0xbd3a72d0	-0.04551965
3	0xbe105b09	-0.14097227
4	0xbde82c6d	-0.113365985
5	0xbd47d884	-0.04879047
6	0x3e0c756b	0.13716666
7	0x3e2acfc1	0.16680814
8	0x3e07c87a	0.1326007
9	0xbd0f268e	-0.034948878
10	0x3e3fa07a	0.1871356
11	0xbe60fd46	-0.21971616
12	0x3d544272	0.05182118
13	0xbe01c4b0	-0.12672687
14	0xbe34f6b5	-0.17672236
15	0xbcd29a98	-0.025708482

conv2.weight f4 [32, 16, 3, 3]
0	0xbd802112	-0.06256308
1	0x3cc20fdf	0.023689209
2	0x3ca3f8bb	0.020016065
3	0x3b4fab12	0.003168766
4	0xbdc87cdb	-0.09789439
5	0xbdbfebd7	-0.09371155
6	0x3d9d1f57	0.07671993
7	0xbcddedc6	-0.027090918
8	0x3e019edd	0.12658258
9	0xbd8f2c16	-0.069908306
10	0xbe094744	-0.13406092
11	0xbeac1b8e	-0.33614773
12	0xbe5abc9a	-0.21361008
13	0xbe2b546e	-0.16731426
14	0x3b9aa8fe	0.0047198525
15	0x3e577bef	0.2104337
16	0x3e2de867	0.16983186
17	0x3da04ebb	0.07827517
18	0xbd7923a8	-0.06082502
19	0xbd75c808	-0.060005218
20	0x3d71bc09	0.059017215
21	0x3de67270	0.11252296
22	0x3e1198a1	0.1421838
23	0xbc2adbd7	-0.0104283905
24	0xbc9967c5	-0.018726239
25	0xbd58ebf7	-0.05295941
26	0xbd594d64	-0.05305232
27	0x3c948f6e	0.018134799
28	0xbdab8682	-0.08375265
29	0xbe2f1811	-0.17099024
30	0x3d1e3557	0.038625088
31	0x3e0b7111	0.1361735
32	0xbdc0d484	-0.09415534
33	0xbe156451	-0.14589049
34	0x3e055f45	0.13024624
35	0x3db70c52	0.08937897
36	0xbd518270	-0.051149786
37	0x3b9694ac	0.00459536
38	0xbd0ca24c	-0.034334466
39	0x3dc7f21e	0.09762977
40	0xbe428ff2	-0.19000223
41	0xbcdc8124	-0.026917048
42	0x3dbbc902	0.091691986
43	0xbdc21d44	-0.09478238
44	0xbdc94135	-0.098268904
45	0xbd92ad62	-0.071619764
46	0xbe49b38f	-0.19697402
47	0xbebd94a6	-0.37027472
48	0xbe3e281c	-0.18569988
49	0xbdaa800e	-0.08325206
50	0xbd41b4c8	-0.047291547
51	0x3dd1cbba	0.10243936
52	0x3e347061	0.17620994
53	0x3cb7a696	0.022418302
54	0x3de50cc3	0.11184075
55	0xbcbc2c18	-0.022970244
56	0x3e128eb6	0.14312252
57	0x3da776e9	0.08176977
58	0x3cac3874	0.021023013
59	0x3dcd7272	0.10031594
60	0xbe18c7a0	-0.14919901
61	0xbda37f3a	-0.07983251
62	0x3d0b0047	0.03393581
63	0xbd3761ef	-0.04477113
64	0xbdb1d277	-0.08682721
65	0xbd849514	-0.06473747
66	0x3b84a09d	0.004047467
67	0x3b083c86	0.0020788028
68	0xbcfd0212	-0.030884776
69	0x3d9ef675	0.07761852
70	0xbd4a358c	-0.049367473
71	0xbbad1c55	-0.0052829185
72	0x3bcd2ce7	0.0062614563
73	0xbd582959	-0.052773807
74	0x3dbfc5d5	0.09363905
75	0x3e043f73	0.12914829
76	0x3df539a9	0.119738884
77	0x3c4c32bb	0.012463267
78	0xbd9f15b0	-0.077678084
79	0x3a20e716	0.000613795
80	0xbd47cc70	-0.04877895
81	0xbc03ea64	-0.008051489
82	0xbc7ff78a	-0.015622983
83	0x3c0a974a	0.008458922
84	0x3e9d8136	0.30762643
85	0x3d4da2e7	0.050204184
86	0xbd142d32	-0.036175914
87	0xbe960aed	-0.2930521
88	0xbea1350c	-0.31485784
89	0xbeaac315	-0.3335196
90	0x3cc71d93	0.024306094
91	0xbd83846d	-0.064217426
92	0xbbe05d79	-0.0068470803
93	0xbe575989	-0.21030249
94	0xbc4600e9	-0.012085178
95	0x3db1c8b5	0.0868086
96	0xbe8ecbcb	-0.27889857
97	0xbe223144	-0.15839106
98	0x3d201075	0.039078195
99	0x3e1ae6a7	0.1512705
100	0x3e035acf	0.1282761
101	0x3dfbdccf	0.12297975
102	0xbdb6cb9f	-0.089255564
103	0x3d28763a	0.041128375
104	0x3d9031f6	0.07040779
105	0xbe6a338d	-0.22871228
106	0xbda19f26	-0.07891683
107	0xbe36eb34	-0.1786316
108	0xbdcdd199	-0.10049743
109	0x3aadc9d4	0.0013259002
110	0x3d337d7e	0.04382085
111	0x3dfc93c1	0.12332869
112	0x3dbbc4b3	0.09168377
113	0xbe1bad77	-0.1520289
114	0xbd54c900	-0.0519495
115	0xbe57b94d	-0.2106678
116	0xbed40ac6	-0.4141447
117	0xbdc80da2	-0.09768225
118	0xbc8d5a30	-0.017254919
119	0x3e07a706	0.13247308
120	0xbe273771	-0.16329743
121	0x3d073bc0	0.033015966
122	0x3d2c55b1	0.04207391
123	0x3e6f7b7c	0.2338695
124	0x3d2a5d5c	0.04159294
125	0xbda1b234	-0.07895318
126	0xbc74cbd8	-0.014941178
127	0xbdd6dec8	-0.10491711
128	0x3da19bc8	0.07891041
129	0xbdc53ad3	-0.096303605
130	0xbcc56d97	-0.024100108
131	0x3d97f948	0.074205935
132	0xbdb369d0	-0.087604165
133	0x3cdb7d9e	0.026793297
134	0x3e025257	0.12726723
135	0x3c9607e1	0.018314304
136	0x3d14faa3	0.03637184
137	0xbe2f0866	-0.17093047
138	0x3ca23b34	0.01980362
139	0xbd529655	-0.0514129
140	0xbc51d94d	-0.012808156
141	0x3d2c0ab8	0.04200241
142	0xbc85475b	-0.016269377
143	0xbd8f751c	-0.07004759
144	0x3da59c1b	0.080864154
145	0x3d4fde00	0.050748825
146	0x39a20193	0.0003090022
147	0xbd99e076	-0.07513516
148	0xbdedd500	-0.11612892
149	0x3d136efd	0.03599452
150	0x3e0831f2	0.13300303
151	0xbd9ba3a8	-0.07599574
152	0xbbdf7298	-0.0068190806
153	0xbd23b197	-0.039964285
154	0xbd52f8b8	-0.051506728
155	0xbcf739ee	-0.03017899
156	0x3d5551a9	0.05207983
157	0xbe93c76a	-0.28863078
158	0xbe968be8	-0.29403615
159	0xbca4fe2a	-0.020140726
160	0xbe23c36b	-0.15992515
161	0xbeb38ee3	-0.3506995
162	0xbdefd296	-0.11710088
163	0xbe52a488	-0.20570576
164	0xbe56082e	-0.20901558
165	0x3de66f4f	0.11251699
166	0x3e44dd9b	0.19225161
167	0xbb1ac0e4	-0.0023613507
168	0xbde505e1	-0.11182762
169	0xbd5dd4bc	-0.054157957
170	0x3d247b58	0.040156692
171	0x3e91f871	0.28509858
172	0x3e171984	0.14755827
173	0xbe90c307	-0.28273794
174	0x3c8f43d3	0.017488396
175	0xbe3297d1	-0.17440726
176	0xbcaaf38a	-0.020868082
177	0x3e0d10e3	0.13775973
178	0xbcd30c62	-0.02576274
179	0xbe968c90	-0.29404116
180	0x3d271435	0.040790755
181	0xba954bdb	-0.0011390405
182	0x3d7bc601	0.061468128
183	0xbe4f5fb8	-0.20251358
184	0xbe742991	-0.23843981
185	0x3dc021fa	0.093814805
186	0x3ddc3a6e	0.10753332
187	0x3e22998b	0.15878884
188	0x3e31529e	0.17316672
189	0x3cd0849f	0.025453864
190	0xbd937d78	-0.07201666
191	0x3e136e52	0.14397553
192	0xbc806929	-0.015675144
193	0xbe554f28	-0.20830977
194	0xbec6de59	-0.38841513
195	0xbdfb8e4c	-0.12283
196	0xbe7e7dd4	-0.24852687
197	0xbeb8840a	-0.36038238
198	0xbdce178c	-0.10063085
199	0xbdf31d1d	-0.11870787
200	0xbd8ff72e	-0.07029568
201	0xbce0572c	-0.027385317
202	0x3de3d535	0.111246504
203	0x3d82631c	0.0636656
204	0x3d0fefe9	0.035140906
205	0x3e4c5767	0.19955216
206	0x3d1f0c99	0.038830373
207	0x3e2d0ad7	0.16898666
208	0x3e3e7946	0.1860095
209	0xbcd1a27a	-0.02559017
210	0x3d3efff5	0.04663082
211	0x3e0401b5	0.12891276
212	0x3dac1843	0.08403065
213	0x3e14485e	0.14480731
214	0xbcb6b980	-0.02230525
215	0x3d67e53a	0.05661509
216	0xbb822a3e	-0.003972321
217	0xbddfa2b9	-0.10919709
218	0xbe428e4b	-0.18999593
219	0x3c9f5f67	0.019454671
220	0x3e4aeb52	0.1981633
221	0x3d1f152b	0.038838547
222	0xbe006d58	-0.12541711
223	0x3e31cff0	0.17364478
224	0x3e470e92	0.19439152
225	0x3df665dd	0.12031148
226	0x3db5afe1	0.08871437
227	0xbda5676f	-0.08076369
228	0xbca15200	-0.019692421
229	0x3e84c99c	0.25935066
230	0x3e8902f9	0.2676008
231	0xbe1a3a7c	-0.15061373
232	0x3e046d29	0.12932266
233	0x3e5f8fd2	0.21832207
234	0xbd52bb67	-0.051448252
235	0xbe14e23b	-0.14539425
236	0xbe1eb79b	-0.15499727
237	0xbdd5cc81	-0.10439397
238	0xbd9c09f0	-0.07619083
239	0xbdd64953	-0.10463204
240	0x3da0b0c5	0.07846216
241	0xbd0c8f93	-0.03431661
242	0xbd895e07	-0.067073874
243	0xbf1fb6b3	-0.6238815
244	0xbe47f64c	-0.19527549
245	0xbc124c57	-0.008929334
246	0xbe634ff1	-0.22198464
247	0xbe76eb37	-0.24113165
248	0xbe72fccc	-0.23729247
249	0x3d4176a8	0.0472323
250	0x3d6ede78	0.05831763
251	0xbdf4aaab	-0.11946615
252	0x3e51c487	0.20485125
253	0x3da77f46	0.08178572
254	0xbed234af	-0.4105582
255	0x3e98c4b9	0.29837587

conv2.bias f4 [32]
0	0x3b19355e	0.0023377757
1	0xbc8e0724	-0.01733739
2	0xbc8f28c5	-0.017475495
3	0xbdae621f	-0.08514809
4	0xbdc2b7ed	-0.09507737
5	0xbd763267	-0.06010666
6	0xbcd91a4e	-0.0265018
7	0xbd813e42	-0.06310703
8	0xbc4c443a	-0.012467438
9	0xbd2c60d8	-0.042084545
10	0xbdb24324	-0.08704212
11	0x3937b4ba	0.00017519566
12	0xbda5176d	-0.08061109
13	0xbdce86cf	-0.100843064
14	0x3d8b2066	0.06793289
15	0xbdf57926	-0.11985998
16	0xbda70198	-0.08154601
17	0xbde792b2	-0.11307277
18	0xbe16ecc0	-0.1473875
19	0xbb7b086e	-0.0038304585
20	0xbdb9b760	-0.09068179
21	0xbddde35a	-0.108343795
22	0x3d3c07e4	0.045905963
23	0xbd98206e	-0.074280605
24	0x3d643ec4	0.05572392
25	0xbd24d2dc	-0.040240154
26	0xbbfd5180	-0.007730663
27	0xbdbe0b3a	-0.09279485
28	0xbc5a4a13	-0.013323325
29	0xbdca6440	-0.098824024
30	0xbc9499dc	-0.018139772
31	0xbd37b6b0	-0.04485196

fc1.weight f4 [128, 1568]
0	0xbc75bc00	-0.014998436
1	0x3cf37116	0.02971701
2	0x3da1ea46	0.07906012
3	0x3d26a5b2	0.040685363
4	0x3de58390	0.11206734
5	0xbc870e89	-0.016486423
6	0x3cba4812	0.022739444
7	0xbc373f81	-0.011184574
8	0x3ce57cbf	0.028013585
9	0x3db4e4db	0.08832713
10	0x3d960280	0.073246956
11	0x3d8bacd1	0.068200715
12	0x3d198ac6	0.03748586
13	0x3d256017	0.04037484
14	0x3cd4faad	0.025998438
15	0x3cb88e4d	0.022528792
16	0xbca524d9	-0.020159172
17	0x3e000a4e	0.12503931
18	0x3e187440	0.14888096
19	0x3dd1467b	0.10218521
20	0x3df23322	0.11826159
21	0x3d76d1cc	0.06025867
22	0xbd33f262	-0.043932326
23	0xbb2205c5	-0.0024722677
24	0x3e0dffa2	0.13867047
25	0x3e0b9615	0.1363147
26	0xbc4b6af2	-0.0124156345
27	0xbe275832	-0.16342238
28	0xbe07cf40	-0.13262653
29	0xbdb96e5a	-0.09054251
30	0xbe1df6ce	-0.1542618
31	0xbd41944e	-0.047260575
32	0xbd70b390	-0.058764994
33	0xbe32ead4	-0.17472392
34	0xbd7ab319	-0.061205957
35	0xbe05e3bc	-0.13075155
36	0x3ca8f2bf	0.020623563
37	0x3cf15254	0.029458202
38	0xbc3a6455	-0.01137646
39	0xbd81a81b	-0.06330892
40	0xbdb544c4	-0.088510066
41	0x3d33ff39	0.04394457
42	0x3d747617	0.05968293
43	0xbd0c49b4	-0.034249976
44	0x3d89f620	0.06736398
45	0x3e02060d	0.1269762
46	0x3d02aae7	0.031901266
47	0x3cebab41	0.028768184
48	0xbb19a436	-0.0023443825
49	0xbd16a6cc	-0.036780164
50	0xbd3980d0	-0.04528886
51	0xbcf9c9b4	-0.030491687
52	0x3cd06ec4	0.025443442
53	0x3d47c523	0.04877199
54	0x3d1a40ac	0.037659332
55	0x3d152e83	0.03642131
56	0xbaa637be	-0.0012681407
57	0x3c839574	0.016062476
58	0x3dc46b23	0.09590747
59	0x3d7b85fb	0.06140707
60	0x3ca31160	0.019905746
61	0xbd2dd4d9	-0.042439315
62	0x3dc57e1d	0.09643195
63	0x3c9e5b6a	0.019330699
64	0x3d4e8a9b	0.050425153
65	0xbd10588f	-0.035240706
66	0xbe154889	-0.14578451
67	0xbcf92f59	-0.030418085
68	0xbd81a0f8	-0.063295305
69	0x3c80a0ab	0.015701612
70	0x3c5e5035	0.0135689275
71	0x3db89630	0.09013021
72	0x3da941b1	0.08264483
73	0xbdacec37	-0.08443492
74	0xbc906af8	-0.017629132
75	0x3d2b50bd	0.041825045
76	0x3c77081d	0.015077618
77	0x3db52522	0.08844973
78	0x3e425f77	0.1898173
79	0xba1ac251	-0.0005903589
80	0x3c9154be	0.017740604
81	0xbdd6bc4c	-0.104851335
82	0x3cdbd159	0.026833223
83	0xbd84ced8	-0.06484765
84	0x3d1bdf1d	0.038054574
85	0x3daa5f9b	0.083190165
86	0x3e002938	0.12515724
87	0xbc27c584	-0.0102399625
88	0xbdc3b591	-0.095561154
89	0xbda05b1b	-0.07829877
90	0x3d7a2c3f	0.061077353
91	0xbc42eebb	-0.011897738
92	0xbd1523f2	-0.036411233
93	0xbcbd753e	-0.023127194
94	0xbcc5d3ea	-0.0241489
95	0x3da56615	0.08076111
96	0x3d4d972a	0.05019299
97	0xbd117d64	-0.035519972
98	0xbdc5eb84	-0.09664062
99	0xbd822c68	-0.06356126
100	0x3c2cd3ea	0.010548571
101	0xbdada52f	-0.08478772
102	0x3d0f3fa3	0.034972798
103	0xbd934b12	-0.07192053
104	0xbd27cbd3	-0.040965866
105	0x3d3a7713	0.045523714
106	0x3c36de9e	0.0111614745
107	0x3d660da0	0.056165338
108	0x3cb83855	0.022487799
109	0x3dfc9194	0.12332454
110	0x3d9ce6ab	0.07661184
111	0x3df0cb6c	0.1175755
112	0xbd8b3187	-0.06796556
113	0xbce10cc4	-0.027471907
114	0x3d8f751e	0.0700476
115	0x3c80b67d	0.015712017
116	0x3def3c94	0.11681476
117	0x3dc27a9c	0.09496042
118	0x3d31c0b7	0.043396678
119	0xbdfd61b1	-0.12372149
120	0xbd1e221f	-0.03860676
121	0xbc916b6d	-0.01775142
122	0x3cced7e0	0.025249422
123	0x3d1d89cd	0.038461495
124	0x3d756022	0.059906133
125	0xbcff2473	-0.03114531
126	0xbdf036ba	-0.11729188
127	0x3dc77fdc	0.09741184
128	0x3e170b89	0.14750494
129	0x3d628631	0.055303756
130	0x3c2fc329	0.010727682
131	0xbd822e28	-0.0635646
132	0xbe0a740e	-0.13520834
133	0xbc95608d	-0.018234516
134	0x3d85f2e0	0.06540465
135	0x3d19b821	0.037529115
136	0x3d93b7aa	0.072127655
137	0xbd6fbd88	-0.05853036
138	0xbe24fcc4	-0.16112047
139	0xbdf53da4	-0.11974648
140	0xbdfde785	-0.123976745
141	0x3c2bcaea	0.01048539
142	0x3d46eca9	0.04856554
143	0x3cde83dd	0.027162487
144	0xbccc49bf	-0.024937509
145	0xbbebb5c9	-0.0071933013
146	0x3da4fca1	0.08055998
147	0xbd5ed5b0	-0.054403007
148	0x3d68ddc5	0.05685212
149	0x3d0f828e	0.035036616
150	0x3cf56001	0.029953005
151	0xbd0dfc37	-0.03466436
152	0xbcf42bf8	-0.029806122
153	0x3d134d9c	0.035962686
154	0xbc0684ff	-0.00821042
155	0x3cf5a8b4	0.02998767
156	0x3de6c89b	0.11268731
157	0xbc81134f	-0.015756277
158	0x3cad68de	0.021168169
159	0x3d77cd14	0.060498312
160	0x3d079d0e	0.033108763
161	0xbd1f654a	-0.038914956
162	0x3cccee48	0.025015965
163	0x38a9bed0	8.0940896e-05
164	0xbcb19076	-0.02167533
165	0x3dc0d257	0.09415119
166	0x3d1ec1b0	0.038758934
167	0xbba56f4e	-0.005048669
168	0x3e10833f	0.14112566
169	0x3dcaf418	0.099098384
170	0x3bf59b1f	0.0074952985
171	0x3d96740e	0.073463544
172	0x3c4d79c3	0.012541237
173	0xbc501ff3	-0.01270293
174	0x3c7a946d	0.0152941765
175	0x3dbc6c9c	0.09200403
176	0x3e162bb5	0.1466511
177	0x3e143cde	0.14476344
178	0x3d21e5ff	0.039525982
179	0x3d58b452	0.05290634
180	0xbd07dce1	-0.03316963
181	0xbdeb5b8a	-0.11492069
182	0xba000252	-0.0004883158
183	0x3c1b11f2	0.009464728
184	0xbdb6ea3a	-0.08931394
185	0xbdd0e534	-0.10199967
186	0xbd94e2cb	-0.0726982
187	0xbd5b246b	-0.053501528
188	0xbd5f8d09	-0.05457786
189	0xbd540a4e	-0.05176764
190	0x3d1a7234	0.03770657
191	0x3d68d4d4	0.056843594
192	0x3b53c072	0.0032310751
193	0xbc4261ab	-0.011864106
194	0xbaf1e95e	-0.001845639
195	0x3daeed17	0.08541315
196	0xbc06d416	-0.008229276
197	0x3c8570c4	0.016289122
198	0xbd812acf	-0.06306993
199	0x3b416af9	0.0029513224
200	0xbc6c540b	-0.014424334
201	0x3b151b66	0.0022751926
202	0xbc039262	-0.008030506
203	0xbc552a87	-0.013010628
204	0xbd6349fb	-0.055490475
205	0x3d837de1	0.06420494
206	0x3ba47ce8	0.005019773
207	0xbca27430	-0.019830793
208	0xbd1c6691	-0.038183752
209	0x3bb41037	0.005495097
210	0xbc1113e0	-0.008854836
211	0xbdb91377	-0.09036916
212	0x3d276505	0.040867824
213	0x3d95fc62	0.07323529
214	0xbcafd453	-0.021463549
215	0x3bd0dccd	0.0063739778
216	0x3c3e1496	0.011601588
217	0x3d9c54d0	0.07633364
218	0xbdd621e9	-0.104556866
219	0x3cbe0cd9	0.023199486
220	0xbdf556eb	-0.11979469
221	0xbd323a88	-0.04351285
222	0x3d5aed3d	0.053448904
223	0x3d5aa81e	0.053382985
224	0xbd7fd4ca	-0.06245879
225	0xbdc9b160	-0.09848285
226	0xbe7610db	-0.24029867
227	0x3a12a896	0.0005594579
228	0xbca92575	-0.020647744
229	0x3d93ca84	0.07216361
230	0x3d3d4430	0.046207607
231	0x3d3db686	0.046316646
232	0xbdaa072d	-0.0830215
233	0xbe1d3208	-0.15351117
234	0x3dbded4c	0.092737764
235	0x3dcd2a8f	0.10017883
236	0x3d7ad29c	0.06123601
237	0x3cd492de	0.025948938
238	0x3d820263	0.063481115
239	0x3de89ab3	0.113576315
240	0x3d56afa8	0.052413613
241	0x3d9318c9	0.07182462
242	0x3ce107e6	0.027469587
243	0x3d86f40a	0.065895155
244	0x3c52b905	0.012861495
245	0xbbaa4e82	-0.005197347
246	0x3cafc0a8	0.02145417
247	0x3bb52757	0.0055283713
248	0xbdde718a	-0.108614996
249	0xbca74f31	-0.020423504
250	0x3c5ec2d2	0.0135962535
251	0xbd1cee4b	-0.03831319
252	0x3cacaa24	0.021077223
253	0xbcbe147a	-0.023203123
254	0xbab4a983	-0.0013783429
255	0xbc185752	-0.009298163

fc1.bias f4 [128]
0	0xbcc48f7b	-0.023994198
1	0x3d1b93a7	0.03798261
2	0xbd0e305b	-0.034714084
3	0x3d91c987	0.071185164
4	0xbd46bbcf	-0.048518952
5	0xbd07b352	-0.033129998
6	0x3c7ebef9	0.015548461
7	0xbc4b1823	-0.012395891
8	0xbd3394d0	-0.04384309
9	0xbc6ad2ca	-0.014332483
10	0xbba4cc40	-0.0050292313
11	0xbcf63e0a	-0.03005888
12	0xbcdadb0d	-0.02671578
13	0xbb86e003	-0.0041160597
14	0x3dab0db9	0.08352227
15	0xbbe9bcd1	-0.0071331044
16	0x3cbaf0e1	0.022819938
17	0xbd8fa831	-0.07014502
18	0xbce54efb	-0.027991762
19	0xbd391416	-0.04518517
20	0xbcc303ec	-0.023805581
21	0xbc5bb82d	-0.01341061
22	0x3cc80bcd	0.02441969
23	0x3c8003d9	0.015626835
24	0xbaac72f0	-0.0013156813
25	0xbb12e449	-0.00224139
26	0x3cf4be85	0.029876003
27	0xbc917269	-0.01775475
28	0xbd79e3fe	-0.061008446
29	0xbc390aa8	-0.011294045
30	0x3bc5739e	0.0060257455
31	0x3cf5a3e8	0.029985383
32	0xbcdc857a	-0.026919115
33	0xbd3fae7f	-0.04679727
34	0xbb4d5b52	-0.0031334949
35	0x3c696624	0.014245544
36	0xbc609912	-0.01370837
37	0xbbac932c	-0.0052665677
38	0xbd6c3eae	-0.057676964
39	0x3dacf332	0.08444823
40	0xbcc35078	-0.023842081
41	0xbc01cd38	-0.007922463
42	0x3ba5e26e	0.005062393
43	0xbcb39dc5	-0.021925816
44	0xbcf2dff3	-0.029647803
45	0xbcce5b57	-0.025190039
46	0xbd0e1b5f	-0.03469407
47	0x3c383123	0.011242184
48	0xbd4df735	-0.050284583
49	0xbcc4da99	-0.024030017
50	0xbc93af03	-0.018027788
51	0xbc4bc6f0	-0.012437567
52	0xbdc1ac0d	-0.09456644
53	0x3c4d293e	0.01252204
54	0x3c45607c	0.012046929
55	0x3cfaec1a	0.03063016
56	0x3c9671ee	0.018364873
57	0xbcd456b9	-0.025920259
58	0xbcd39bfa	-0.025831211
59	0x3d5f3216	0.054491125
60	0x3c38c388	0.011277087
61	0xbb672234	-0.003526819
62	0x3d04afdf	0.032394286
63	0x3d17d98a	0.037072696
64	0x3b3e4f6c	0.0029039038
65	0xbc9e2220	-0.019303381
66	0x3bbc8a93	0.005753824
67	0x3d153d21	0.03643525
68	0xbccfcfcf	-0.025367646
69	0xbd33ed87	-0.043927696
70	0x3cb7c64a	0.022433419
71	0xbd47b99e	-0.048761003
72	0x3ceb2d49	0.028708117
73	0xbd144708	-0.036200553
74	0x3c625904	0.013815168
75	0x3cb8fce5	0.022581527
76	0xbc9f4e0f	-0.0194464
77	0xbb7c7c94	-0.0038526403
78	0xbadae2b1	-0.0016699639
79	0x3c614316	0.013748905
80	0xbb7a61f2	-0.0038205353
81	0xbc9aa38e	-0.018876817
82	0xbd7439dd	-0.059625495
83	0xbd9e43aa	-0.0772775
84	0x3d0af96b	0.03392927
85	0xbbc51740	-0.0060147345
86	0x3d8b4972	0.06801118
87	0xbcb4e5cc	-0.022082232
88	0xbc8d218c	-0.01722791
89	0xbcca68c0	-0.024708152
90	0x3d7db9c0	0.061944723
91	0xbc6ec0c0	-0.014572322
92	0xbc841612	-0.016123805
93	0xbce0e285	-0.027451763
94	0xbcf7ee02	-0.030264858
95	0xbd35794a	-0.044305123
96	0xbdbab9be	-0.09117459
97	0x3ce55848	0.027996197
98	0x3c61b1fc	0.013775345
99	0x3afc03d8	0.001922722
100	0x3d15f6dc	0.036612377
101	0xbccc256a	-0.024920184
102	0x3b982333	0.004642868
103	0x3c8f82b3	0.017518377
104	0xbc6e9325	-0.014561449
105	0x3c82ff8e	0.015990999
106	0xbd09cc4d	-0.033642102
107	0xbccb3c16	-0.024808925
108	0xbc601baa	-0.013678471
109	0xbd9273a2	-0.071509615
110	0xbd5a9423	-0.05336393
111	0xbcabbaba	-0.020963062
112	0xbcf55eab	-0.029952368
113	0x3b3e61d6	0.0029050014
114	0x3c97d273	0.018532967
115	0x3619d8a0	2.292487e-06
116	0xbcc7450f	-0.024324922
117	0xbd0141db	-0.031556945
118	0xbd379437	-0.044819083
119	0x3d36f7c8	0.044669896
120	0x3a8e8d60	0.0010875873
121	0x3beef7dc	0.0072927307
122	0xba833633	-0.001001066
123	0xbc6ca0e7	-0.014442659
124	0xbcbb167d	-0.022837872
125	0xbbebe15a	-0.007198495
126	0xbcf7d914	-0.030254878
127	0xbc670b13	-0.014101761

fc2.weight f4 [10, 128]
0	0xbe4d7214	-0.20063049
1	0x3d83f748	0.064436495
2	0xbd8696d5	-0.06571738
3	0xbe262d73	-0.16228275
4	0x3c9d16da	0.019175936
5	0x3dc7e481	0.097603805
6	0x3e1a2ce0	0.15056181
7	0xbe0f0f55	-0.13970692
8	0xbdc70f67	-0.09719735
9	0xbe669de7	-0.22521172
10	0x3d16b3ad	0.036792446
11	0x3d5fd6ef	0.054648336
12	0xbb15d632	-0.0022863266
13	0x3c898a28	0.01678951
14	0x3d765164	0.060136214
15	0xbe21d29d	-0.15802999
16	0x3e12712e	0.14300987
17	0x38df8b01	0.0001065936
18	0xbacf99d5	-0.0015838692
19	0xbd82bae2	-0.06383301
20	0xbd9af90c	-0.07567033
21	0xbe28efcb	-0.16497724
22	0xbe294ae5	-0.16532476
23	0x3c41aa7e	0.011820434
24	0x3da02fbb	0.07821604
25	0xbd1e2cde	-0.038617007
26	0x3e1449f4	0.14481336
27	0xbcda3432	-0.026636217
28	0xbe9c1c73	-0.30490455
29	0xbd55047e	-0.052006237
30	0xbd05b61c	-0.032644376
31	0x3debb283	0.11508658
32	0xbd517941	-0.051141027
33	0x3d5ddec6	0.05416753
34	0xbe3cc603	-0.1843491
35	0x3d3d5f29	0.04623333
36	0x3dd2eaf9	0.10298724
37	0x3dc2a36c	0.095038265
38	0x3d7febdd	0.062480796
39	0xbe43bd69	-0.19115223
40	0x3d5cc141	0.05389524
41	0x3c97ce71	0.018531056
42	0xbc0713af	-0.008244439
43	0x3d34121c	0.043962583
44	0xbd47c776	-0.048774205
45	0x3d03f38b	0.032214683
46	0xbe3e7e1b	-0.18602793
47	0xbd0560c4	-0.032562986
48	0x3bcedf84	0.006313266
49	0x3d8ce2ca	0.06879194
50	0x3db6ec10	0.08931744
51	0xbe422822	-0.18960622
52	0xbe5230c1	-0.2052641
53	0xbe84cf42	-0.25939375
54	0xbe398c3e	-0.18119904
55	0xbe612931	-0.2198837
56	0x3d52fe37	0.05151197
57	0x3d6ee5c2	0.058324583
58	0xbd22a0a5	-0.039703984
59	0xbe3d9fdc	-0.18518013
60	0xbc9fe42e	-0.019517984
61	0x3db5e884	0.088822395
62	0xbe5ffd3c	-0.21873945
63	0x3d76386c	0.0601124
64	0xbd25e9b0	-0.040506065
65	0x3d87241c	0.06598684
66	0x3d27a315	0.04092701
67	0x3d8dc13b	0.069216214
68	0x3e13f72a	0.14449754
69	0xbd369f74	-0.04458566
70	0x3ddd7e72	0.10815133
71	0xbdd620e0	-0.10455489
72	0x3e162b43	0.1466494
73	0x3de57666	0.11204223
74	0x3c8e598e	0.017376687
75	0xbd99276e	-0.07478224
76	0x3d92fba4	0.07176903
77	0x3decfe10	0.11571896
78	0x3cae3b44	0.021268494
79	0xbd22f2e8	-0.039782435
80	0xbcb9d40a	-0.022684116
81	0x3d2b1b30	0.041773975
82	0xbc7ae736	-0.015313914
83	0xbe1ee481	-0.15516855
84	0xbe1f13be	-0.15534875
85	0x3d30397d	0.043023575
86	0x3b42b09b	0.0029707316
87	0x3d1283a6	0.03577008
88	0x3c03e06f	0.008049115
89	0xbe18b786	-0.14913759
90	0xbcf6044a	-0.030031342
91	0x3db8a101	0.09015084
92	0xbd12af43	-0.035811674
93	0xbd8c9890	-0.068650365
94	0x3e0f261e	0.13979384
95	0x3dc1cb21	0.09462572
96	0xbca649c1	-0.02029884
97	0xbe4c9ab6	-0.19980893
98	0xbc4dd70a	-0.012563476
99	0x3d347e26	0.044065617
100	0xbe6b49eb	-0.22977416
101	0xbb6e802e	-0.003639232
102	0x3c503550	0.012708023
103	0x3da4b659	0.080425926
104	0x3d6147e0	0.055000186
105	0x3dd7076e	0.10499464
106	0xbb5ccba9	-0.0033690727
107	0xbd0d778f	-0.034537848
108	0x3d5c84bb	0.05383752
109	0xbd80453b	-0.06263205
110	0x3d178954	0.0369962
111	0xbe55a974	-0.20865422
112	0xbd21ca82	-0.039499767
113	0x3cb61440	0.022226453
114	0xbd5fc8d8	-0.0546349
115	0x3c851b8d	0.016248489
116	0x3cb64338	0.02224885
117	0x3df10b59	0.117697425
118	0x3d656c43	0.05601145
119	0x3dae9aec	0.08525643
120	0xbd18d143	-0.037308943
121	0x3d677ca9	0.05651537
122	0xbb9de8d3	-0.0048190146
123	0x3d263508	0.04057792
124	0xba1af21d	-0.00059107115
125	0x3cf89fd1	0.030349644
126	0x3d9a28cf	0.07527315
127	0x3d43b94a	0.047784127
128	0xbe5177f2	-0.20455912
129	0x3db5dad1	0.088796265
130	0x3d77df11	0.060515467
131	0x3e058011	0.13037135
132	0x3deb6d9e	0.11495517
133	0xbd62a187	-0.055329826
134	0x3e15ef9d	0.14642186
135	0x3d9428b8	0.07234329
136	0x3c8dfb62	0.017331783
137	0xbcb97f9a	-0.022643853
138	0xbd1dca2c	-0.038522884
139	0xbddeb532	-0.10874404
140	0x3d7d724c	0.06187658
141	0x3d14d258	0.036333412
142	0x3d1a130a	0.037615813
143	0xbe89e629	-0.2693341
144	0xbe8cfe5f	-0.2753782
145	0x3c8b441c	0.01700025
146	0xbbad96ae	-0.0052975034
147	0x3df6a0d0	0.12042391
148	0x3ceef262	0.029168312
149	0x3dc0dde5	0.09417323
150	0x3dd796f8	0.10526842
151	0xbd0341f6	-0.032045327
152	0xbe530d09	-0.20610441
153	0xbd69ab98	-0.05704841
154	0x3d79412a	0.06085316
155	0x3c987b53	0.018613493
156	0xbe2cd67b	-0.16878693
157	0xbda01826	-0.07817106
158	0xbcb15e31	-0.02165136
159	0x3e1d2fd7	0.1535028
160	0x3da659c1	0.08122588
161	0xbe32e2b0	-0.17469287
162	0xbba8f476	-0.005156095
163	0x3d8e6d7e	0.06954478
164	0xbdeffa72	-0.117176905
165	0xbe045ecf	-0.12926792
166	0xbe61ac11	-0.22038294
167	0x3e254ca5	0.16142519
168	0x3c7d5d36	0.015464118
169	0x3c427024	0.011867557
170	0x3d2cc866	0.042183302
171	0xbd1ba669	-0.038000498
172	0x3bb70130	0.0055848584
173	0xbd9fe382	-0.078070655
174	0xbe624075	-0.22094901
175	0x3da39a16	0.07988374
176	0xbba09be0	-0.0049013942
177	0xbd392f59	-0.04521117
178	0xbe842294	-0.2580763
179	0xbe7b8d22	-0.24565557
180	0xbdb5de4e	-0.08880292
181	0x3dc375d0	0.09543955
182	0x3e23cbb5	0.15995677
183	0xbd51b7ca	-0.051200666
184	0x3dc088ac	0.09401068
185	0x3bc704ab	0.0060735545
186	0x3c8c09e1	0.017094554
187	0x3d9f9f19	0.07794017
188	0x3bd1d532	0.0064035887
189	0xbbae8281	-0.005325616
190	0x3dc57bf0	0.0964278
191	0x3e0c1b19	0.13682212
192	0xbb754044	-0.0037422339
193	0x3cecf778	0.028926596
194	0xbdfa3e48	-0.122189105
195	0xbd836210	-0.06415188
196	0xbde4c096	-0.11169545
197	0xbe0eb0ae	-0.13934585
198	0x3e72ace4	0.23698765
199	0xbe3f893c	-0.18704695
200	0x3e0fe978	0.14053905
201	0xbe841e1e	-0.25804228
202	0x3cdc3276	0.02687953
203	0x3dc79324	0.09744862
204	0xbd941e95	-0.072323956
205	0xbdbdb3cb	-0.092628084
206	0xbc7b3d12	-0.0153343845
207	0x3d04f265	0.032457728
208	0x3d4d1e62	0.050077803
209	0xbd3e8bf6	-0.046520196
210	0x3d97e268	0.074162304
211	0xbe1a846e	-0.1508958
212	0x3d49ae15	0.049238283
213	0x3d384466	0.044987105
214	0x3d885f4f	0.06658804
215	0xbe1871d4	-0.14887172
216	0x397a230f	0.00023854918
217	0x3d9e297d	0.07722757
218	0x3e4c1d15	0.19932969
219	0x3d8466a7	0.06464892
220	0xbcfea89f	-0.031086264
221	0x3c542780	0.012948871
222	0xbe395aa9	-0.1810099
223	0xbe640800	-0.22268677
224	0x3cf2104c	0.029548787
225	0x3d29146e	0.04127925
226	0xbd6109d0	-0.054941
227	0x3d9146fa	0.07093616
228	0x3dc5deea	0.09661658
229	0xbd628291	-0.0553003
230	0x3a19e25f	0.0005870219
231	0x3cabfe4a	0.020995278
232	0xbdd3d2b9	-0.103429265
233	0xbd38e0d0	-0.045136273
234	0x3d55d1f5	0.052202184
235	0xbd80410b	-0.06262406
236	0x3dcbf986	0.09959702
237	0xbe22f3f7	-0.15913378
238	0xbd189b62	-0.03725756
239	0x3d9266f8	0.07148546
240	0xbcfc5e52	-0.030806694
241	0x3d6703ca	0.056400098
242	0xbc999e58	-0.018752262
243	0x3aaf74e6	0.0013386279
244	0x3d367bb7	0.044551577
245	0xbdc154b2	-0.094399825
246	0xbe8a97bf	-0.27068898
247	0x3dbf1a37	0.09331172
248	0xbd36fcb1	-0.04467458
249	0xbce31ba2	-0.027723137
250	0xbd3f03a1	-0.04663432
251	0xbd20f45f	-0.03929555
252	0x3d279351	0.040911976
253	0xbdc15089	-0.09439189
254	0xbdfe5128	-0.12417823
255	0x3d0233f3	0.031787824

fc2.bias f4 [10]
0	0xbcb1ab39	-0.02168809
1	0x3c379462	0.011204811
2	0x3daf07ff	0.08546447
3	0x3d0d49c2	0.03449417
4	0xbaa9747c	-0.0012928392
5	0xbc56c398	-0.013108157
6	0xbe0bed85	-0.13664825
7	0x3c44d416	0.012013456
8	0xbbce2381	-0.0062908535
9	0xbd2ab119	-0.0416728
